exoplanet_model.pth (torch, 195497 bytes, 20 tensors)

network.0.weight f4 [256, 11]
00000000: d861 00be 84fa a43d 9940 c0ba 07e2 183e
00000010: 8bd1 99bb f8e7 8ebd 5495 c93b 0e7d 89bd
00000020: dd4b 72bd 299a 8dbc 04fd 683d 7505 52bd
00000030: 4373 cebd 25f5 ebbc e86d a53d faab 953d
00000040: cb45 a33c d127 01bd 91c1 8dbc 33b5 bfbd
00000050: b958 013e 24ee a9bd ca66 0fbc 5e93 86bc
00000060: ca13 5abd f273 40bd d438 b3bd 2cac a4bd
00000070: 2e54 93bd 97fc f73d dd01 eebd 4bca afbc
00000080: 6363 063e 77b2 95bd 1aaa e2bd 0c29 8fbd
00000090: 292c d73d cd39 c43c 07aa aebd 611c d1bd
000000a0: df07 f9ba 9206 a93d 8e1b 50bd 04b0 383e
000000b0: c0a5 c8bd 36a7 863c 0778 c8bc e2c6 913d
000000c0: bd36 213e fb3d b9bd bf79 9fbc eaa4 63bd
000000d0: 74b1 3d3d a71e 733b 532e 8b3d 487e 9a3d
000000e0: e1fa 9dbd 178b a1bd de64 293e e00a b93d
000000f0: 6b7f 0b3e 9449 00bd 7e60 c9bd cc4d fc3c
00000100: 8623 c83c 9b15 9abc 70e4 f63d 3283 1ebe
00000110: 70fe 613d cdab a03d bdf9 803d 3531 4ebd
00000120: 0284 933c 2f96 07bd 5e57 b23d c9c0 d1bd
00000130: 3298 fe3d c0a9 a53c 25c8 b5bb ede1 073d
00000140: 498b 87bd 877b 03be 824d 47be 77ce 1ebd
00000150: 6653 9dbd 6b52 983d f19d 043d 93e0 90bc
00000160: 7198 acbb 5975 573c 12bc 443c 9763 f2bc
00000170: 5c71 bb3c dc83 473d bdac db3d 1bdf 8dbc
00000180: 0aa6 483d 564d 39be 57fe f83b 0401 1dbe
00000190: 08ad d2bc d5e3 f3bc 34b4 c43d 21e9 a0bd
000001a0: 9855 f23c c29d c63d 5f20 1a3d 3a78 8a3d
000001b0: dd90 e03d 09cd 3f3e b805 3fbe aa39 62bd
000001c0: f8f7 843d 3f59 243e c893 e7bd d42f 153d
000001d0: 7f13 0a3d 43fc 1dbe db1c 63bc 9697 73b9
000001e0: 2a6b 853d 65c2 fb3c e452 4c3d 1549 b7bd
000001f0: b21b 1a3d 5d4d d53c 71d4 c7bd 36f0 d8bc
00000200: 7017 803d fd4b 80bd 73ad a33b c3af 56bd
00000210: 82d2 143d ca00 b23d c6b9 993c bf21 3abb
00000220: a229 1fbe a437 923d 9013 383e ddf7 e53d
00000230: 4ba4 dcbd 42ed 603d 0243 10bd 8b16 eabc
00000240: d1e9 f73d 943e 71bd 8c62 153e 632e ecbd
00000250: 095d 423c a74c 98bd eb7c 73b9 78a6 f73c
00000260: 6e31 e2bd 1b3b 263e 210c 433e 5097 7c3d
00000270: 04b5 8a3d d56b eebd 9645 a33d 9a8c 0d3e
00000280: 0611 3abd 5c6f afbd 5969 993d d103 52bd
00000290: 57db cebc d5d8 08bc e650 9d3b 780a 1dbb
000002a0: b38f e0bc 4592 123e 9cf5 29be 5927 dbbd
000002b0: 7fc9 2fbb 6207 0bbd 82cf 33bc de16 27bd
000002c0: 7391 7d3d 1a32 08be b067 e93d 9824 b4bd
000002d0: 2525 c33c 51a8 883c 69e8 8cb9 d7f3 2cbc
000002e0: dbf7 a4bd 1e3d 5e3d 9bfc fcbd c8e4 7bbd
000002f0: f693 0e3e 1349 2dbb 431d e83d f269 81bd
00000300: df10 87bc a438 6d39 b35e abbd c745 383c
00000310: 8f63 61be 56be 2a3d d565 20bd 6d4b af3b
00000320: 0428 30bd 895b 9f3d e286 43bb 8e39 f83d
00000330: 4978 e03d fee2 f5bd 10d0 8f3d 32f4 ef3c
00000340: 6f29 e23d 75d2 4ebd 30ac cf3d ce66 90bd
00000350: 8033 04be c198 183e d2dd bdbd fc09 213e
00000360: a22a c93d 9a15 83bd bd8c 50bd 24fd f5bd
00000370: 958c 0f3c 5044 dabc 342f 963b bd77 a63d
00000380: c8d0 2d3d b6cb a7bd 538a 15be 0018 053d
00000390: 4cd5 a63b adcf d03c 4159 f93d 216b ad3c
000003a0: f4c7 71bd d2b5 c4bb 2ae1 b73c 5b11 39be
000003b0: 7ac0 debd a466 0f3e 6005 a0bd b56a 62bd
000003c0: 238b 5abd 4ccf d9bc fd4c 93bd f8b1 bdbd
000003d0: 5c50 d73c 56f4 c0bc 5eac b33d 569d 323e
000003e0: ba19 9d3d f025 a53d a07d dabd 4f99 c0bd
000003f0: ff5a b0bd 67bb 9c3d 571d 833c 70f0 193d
-0.12537324 0.080555946 -0.0014667689 0.14929973 -0.004694169 -0.06977838 0.0061518345 -0.067133054
-0.05915438 -0.017285423 0.05688192 -0.051274735 -0.10080578 -0.028803417 0.080776036 0.073081926
0.01993074 -0.031532113 -0.017304214 -0.09360733 0.12631501 -0.08297375 -0.008752534 -0.016427692
-0.05324153 -0.046985574 -0.087510735 -0.08040652 -0.071937904 0.121087246 -0.11621449 -0.021458765
0.1312385 -0.0730943 -0.110676005 -0.06990251 0.1050647 0.023953343 -0.08528524 -0.10210491
-0.0018999538 0.08253206 -0.05080753 0.18035895 -0.09797239 0.016437154 -0.024471296 0.07118012
0.15743537 -0.09045025 -0.019467233 -0.055577196 0.04631181 0.0037097128 0.06795945 0.075436175
-0.07713867 -0.078878574 0.16542384 0.09035277 0.13622825 -0.03132017 -0.098328575 0.030798815
0.024431001 -0.01880913 0.1205529 -0.15479735 0.05517429 0.078452684 0.06297634 -0.050339896
0.018007282 -0.03310221 0.0870807 -0.10241849 0.12431373 0.020222545 -0.0055475407 0.033174444
-0.066183634 -0.1284009 -0.1946316 -0.03877112 -0.076819226 0.07437595 0.032377187 -0.01768521
-0.005267196 0.013150536 0.01200773 -0.029588504 0.022881202 0.048709735 0.107263066 -0.017318299
0.048986472 -0.18095908 0.007598679 -0.15332419 -0.025717273 -0.029771725 0.096046835 -0.07856966
0.02958183 0.09698059 0.037628528 0.06761213 0.109651305 0.18730558 -0.18654525 -0.055230774
0.06492609 0.1604967 -0.11307484 0.036422566 0.03371 -0.15428261 -0.01386186 -0.00023230756
0.065145805 0.030732343 0.04988374 -0.08949486 0.03762407 0.026037866 -0.09757317 -0.026481729
0.0625447 -0.062644936 0.004995042 -0.052413713 0.03633357 0.08691557 0.018765341 -0.0028401462
-0.15543225 0.07139519 0.17976213 0.11228917 -0.10773524 0.054913767 -0.035220154 -0.028575202
0.12105144 -0.05889757 0.14588374 -0.11532285 0.011863002 -0.07436495 -0.00023220821 0.030230746
-0.11044584 0.16233484 0.19047596 0.06166774 0.06772807 -0.11641661 0.07972257 0.13823166
-0.04542639 -0.08566162 0.074907966 -0.05127317 -0.025251074 -0.008352478 0.0048009036 -0.0023962539
-0.027412271 0.1431361 -0.16597599 -0.10700864 -0.0026822982 -0.033942588 -0.010974767 -0.040793292
0.06190629 -0.13300362 0.1139673 -0.08796042 0.023821423 0.016681822 -0.0002687604 -0.010556183
-0.08055087 0.054257505 -0.12352868 -0.06149748 0.1392363 -0.002644126 0.11333706 -0.063190356
-0.016487537 0.00022623182 -0.08367672 0.011247105 -0.22010635 0.041685425 -0.039159615 0.0053495676
-0.043006912 0.07781131 -0.0029835035 0.12120353 0.109604426 -0.12006186 0.07022107 0.029291246
0.11043059 -0.050493676 0.10140264 -0.070508584 -0.1291027 0.14902021 -0.092708245 0.15726465
0.09822585 -0.064006045 -0.05091547 -0.12011173 0.008761545 -0.026643902 0.004583264 0.08128307
0.042435437 -0.08193152 -0.14603548 0.03249359 0.005091345 0.025489653 0.12175227 0.021169247
-0.05902858 -0.00600312 0.022446234 -0.18073027 -0.10876556 0.14003998 -0.07813525 -0.055277545
-0.053355347 -0.026588105 -0.07192419 -0.092624605 0.026283436 -0.023554008 0.08773111 0.17442831
0.076709226 0.08063877 -0.10668492 -0.09404241 -0.08611106 0.07652932 0.016005201 0.037582815

network.0.bias f4 [256]
00000000: 767d b8b5 9d01 8d36 20cf a637 b960 9db6
00000010: 02dc 2338 c031 c1b6 2010 8136 847e 8d37
00000020: b01a 7736 60db 2db7 23e5 7db6 12b4 3c36
00000030: d1d3 2437 4e2e 3b37 928e f536 1c35 71b8
00000040: fc6f a5b6 5084 d8b5 2045 d734 f148 81b6
00000050: 3ac1 cc37 5c7f 5936 61ff 99b7 d288 9f37
00000060: 2676 28b7 c5c8 f137 84b3 5c36 4c67 97b7
00000070: 5c30 cf36 c0c8 0338 dca7 8ab5 7d54 8eb7
00000080: 6833 0db7 8ac8 91b7 907c 24b7 e0b8 9437
00000090: aa4e 8136 7a3f 7835 9d8e a937 4869 39b4
000000a0: eb7f 6e36 1e38 cd36 076f 9fb8 acc1 dab6
000000b0: de0c 4436 b216 7d37 a092 3a36 4b00 c936
000000c0: 06fd a9b6 5720 2538 b146 e338 7394 5cb7
000000d0: 4c76 b1b6 3021 b135 c4c0 4eb7 d83e e535
000000e0: 67d9 3936 1185 8cb8 0d04 0cb9 7ea4 dab7
000000f0: 34e4 6cb6 82d8 e834 13d7 a436 3555 f3b5
00000100: 60c0 6934 0221 87b7 a499 d136 05de b537
00000110: c443 ceb6 04e1 0737 72ea 7f37 69cc 0838
00000120: 5c8d 7fb8 3ccd 88b6 f085 f3b5 eeaf 0637
00000130: bea9 bb37 436b 1639 9617 24b7 5180 b636
00000140: 1079 31b8 3a39 a9b6 580e 2238 4008 47b5
00000150: d063 8637 0a67 4937 acd7 6737 30c5 3535
00000160: 5830 c3b4 9ab2 36b6 1e77 7ab6 4ec8 dcb6
00000170: ce79 2436 b273 8837 0002 b3b5 d735 14b6
00000180: c4e8 e635 5617 93b7 56d6 97b6 409f d3b6
00000190: 1460 d5b6 9cd7 87b7 21bc 9637 34e6 6f38
000001a0: 5a8d a8b6 648d 68b5 cde7 17b7 881a bc35
000001b0: 3032 3eb7 0861 ebb6 d009 3c38 b64e 7036
000001c0: fc71 f636 10ea a435 683a f536 6072 e0b5
000001d0: 909a a7b5 7af4 1937 5c4c af37 c8da ffb7
000001e0: cec6 9837 b60e a737 99a3 9a36 cc53 6137
000001f0: 56b1 2eb8 5ad0 b9b6 e013 42b6 22a7 be37
00000200: 3881 ee36 0078 e335 e3cd 0db7 aad0 9236
00000210: 3d4a 9538 6ef7 91b6 6ef5 f3b8 44f9 2db8
00000220: 284d 0eb8 2edb 1637 9471 1db7 5667 c6b8
00000230: fb75 eeb7 3092 be37 fdf2 4a38 ac2c 40b7
00000240: 94b1 45b6 215a 6237 1755 1d38 1ed6 3a37
00000250: 42c3 5137 4a2a dfb6 a005 38b5 2d12 e037
00000260: b461 df37 8241 f336 00cb 9332 dde7 a2b8
00000270: 6884 f037 4a91 00b6 98e4 b4b6 1026 9f36
00000280: af6d 9938 227a 75b7 ae35 8737 7bc2 83b8
00000290: cc40 8036 e350 7e36 10d3 e937 278c 8536
000002a0: a782 7d37 1e00 14b7 fe12 1537 9c08 2eb6
000002b0: 2b7b 6eb8 a85a 27b6 1704 3437 762d 9735
000002c0: ba4c 3537 04df 02b6 b913 10b8 c8f9 06b8
000002d0: fbcf 8fb5 50fb 9db4 906a 6fb5 b034 07b5
000002e0: bb4f 0eb8 262e fc37 e0aa a8b6 3c8b 5e36
000002f0: e3df 5437 a44a c2b5 514c 7436 16b3 7e36
00000300: 77fa 8fb7 2004 a837 d808 a334 2620 9ab6
00000310: 3a05 d736 5661 27b6 d0e8 0938 687e b637
00000320: 24df a835 215a ea36 0f57 0fb5 9abe a238
00000330: 94e8 2235 54b9 3137 f8a2 f535 5ccb 6db7
00000340: 1284 0137 0653 5bb6 98ae 58b7 2274 4837
00000350: 5a19 9bb8 64a8 1fb8 69fc ba37 08ef 8b35
00000360: 0865 8936 bf3b d036 10e4 1ab6 3680 f1b7
00000370: a386 6536 efc4 84b7 a852 ebb6 3a65 a9b6
00000380: 6550 bbb7 ce8f 8ab7 ab94 1eb7 deb9 c036
00000390: f6c9 c536 96d4 ae36 1609 b0b7 a028 bab6
000003a0: 9050 cbb5 74f9 4e37 ae52 3637 cbf5 c8b6
000003b0: 7454 5237 8d7f 4bb7 4a86 8136 8e58 2ab7
000003c0: 5a4f 3937 204f 1237 1d2d 0cb7 6959 c2b6
000003d0: ca8d 99b7 b8b8 f736 1d74 89b7 3df2 bab6
000003e0: 68d9 0238 0c29 8fb7 2066 0cb5 60f0 e936
000003f0: 426a 85b6 535e efb7 78b0 2bb7 091a 0eb8
-1.3745582e-06 4.2023153e-06 1.9885192e-05 -4.6902246e-06 3.9067127e-05 -5.75764e-06 3.846377e-06 1.6867423e-05
3.6821402e-06 -1.0362681e-05 -3.7833313e-06 2.8118998e-06 9.824479e-06 1.115685e-05 7.3181664e-06 -5.750834e-05
-4.93042e-06 -1.6131762e-06 4.0097166e-07 -3.852991e-06 2.4408673e-05 3.2409653e-06 -1.8357941e-05 1.9017989e-05
-1.0041089e-05 2.882293e-05 3.2887046e-06 -1.8048704e-05 6.1747105e-06 3.1419797e-05 -1.0330655e-06 -1.6967062e-05
-8.416224e-06 -1.737873e-05 -9.804164e-06 1.7729064e-05 3.8536573e-06 9.247957e-07 2.021278e-05 -1.7267769e-07
3.5539222e-06 6.116009e-06 -7.602391e-05 -6.5194527e-06 2.9213766e-06 1.5085259e-05 2.7801507e-06 5.990301e-06
-5.0660483e-06 3.9369184e-05 0.00010837371 -1.3147585e-05 -5.2887826e-06 1.3197186e-06 -1.2323439e-05 1.708012e-06
2.7693693e-06 -6.700506e-05 -0.0001335295 -2.6064223e-05 -3.5299572e-06 4.3370898e-07 4.912619e-06 -1.8129709e-06
2.1769802e-07 -1.6108625e-05 6.2465715e-06 2.1680267e-05 -6.1471674e-06 8.099018e-06 1.52537705e-05 3.26153e-05
-6.092839e-05 -4.0770083e-06 -1.8143892e-06 8.027984e-06 2.237118e-05 0.00014345073 -9.780653e-06 5.4389607e-06
-4.2312837e-05 -5.0432545e-06 3.863717e-05 -7.414528e-07 1.6020524e-05 1.2004524e-05 1.3818888e-05 6.77147e-07
-3.6356755e-07 -2.7224073e-06 -3.7322238e-06 -6.5798295e-06 2.4508804e-06 1.6266338e-05 -1.3337121e-06 -2.2085057e-06
1.7204079e-06 -1.7534632e-05 -4.5251027e-06 -6.306829e-06 -6.3590796e-06 -1.6193655e-05 1.7968998e-05 5.7196434e-05
-5.0232456e-06 -8.6632485e-07 -9.054272e-06 1.4014813e-06 -1.1336568e-05 -7.0148417e-06 4.483183e-05 3.5808603e-06
7.344641e-06 1.2287073e-06 7.3083684e-06 -1.6722588e-06 -1.2487453e-06 9.176432e-06 2.0897183e-05 -3.0500247e-05
1.8212388e-05 1.9914802e-05 4.608603e-06 1.3430556e-05 -4.164999e-05 -5.537685e-06 -2.8919821e-06 2.2727592e-05
7.1079958e-06 1.6947743e-06 -8.452192e-06 4.3754308e-06 7.1187016e-05 -4.3501414e-06 -0.00011632858 -4.147856e-05
-3.3927296e-05 8.9917285e-06 -9.384374e-06 -9.4606236e-05 -2.842675e-05 2.2717839e-05 4.8386853e-05 -1.1454493e-05
-2.9458652e-06 1.34916345e-05 3.7510963e-05 1.1136317e-05 1.2502833e-05 -6.650841e-06 -6.8553527e-07 2.6711345e-05
2.6629168e-05 7.2495905e-06 1.7205366e-08 -7.76795e-05 2.8671886e-05 -1.9158056e-06 -5.39103e-06 4.7430003e-06
7.316039e-05 -1.4631574e-05 1.611825e-05 -6.2827916e-05 3.8222406e-06 3.7896032e-06 2.7874048e-05 3.9800248e-06
1.5110395e-05 -8.821515e-06 8.885514e-06 -2.5933032e-06 -5.685833e-05 -2.4937708e-06 1.0729788e-05 1.1263608e-06
1.0806305e-05 -1.9501322e-06 -3.4350644e-05 -3.2180717e-05 -1.071486e-06 -2.9426383e-07 -8.9189507e-07 -5.036809e-07
-3.3929693e-05 3.006223e-05 -5.0266826e-06 3.3161623e-06 1.2688312e-05 -1.447585e-06 3.6403255e-06 3.7953191e-06
-1.716356e-05 2.0029081e-05 3.036755e-07 -4.5933e-06 6.4081078e-06 -2.4941596e-06 3.288017e-05 2.1754953e-05
1.2581918e-06 6.984236e-06 -5.339834e-07 7.760264e-05 6.068815e-07 1.0593172e-05 1.8301353e-06 -1.4173649e-05
7.719749e-06 -3.268187e-06 -1.2915254e-05 1.1947968e-05 -7.395698e-05 -3.806538e-05 2.2290465e-05 1.0425874e-06
4.0946798e-06 6.2058384e-06 -2.3080538e-06 -2.8789142e-05 3.4202028e-06 -1.582733e-05 -7.013168e-06 -5.048377e-06
-2.2329574e-05 -1.6517846e-05 -9.452148e-06 5.7436837e-06 5.894569e-06 5.2103524e-06 -2.0985066e-05 -5.5479613e-06
-1.5148125e-06 1.2336637e-05 1.0867296e-05 -5.9890785e-06 1.2536639e-05 -1.2129441e-05 3.860133e-06 -1.0153408e-05
1.1045335e-05 8.720701e-06 -8.355154e-06 -5.7920593e-06 -1.8305047e-05 7.3826777e-06 -1.6385742e-05 -5.571432e-06
3.119689e-05 -1.7066042e-05 -5.2302676e-07 6.9719244e-06 -3.976079e-06 -2.8534943e-05 -1.0233482e-05 -3.3879685e-05

network.1.weight f4 [256]
00000000: bcf1 583f 6090 6a3f 1362 6c3f 37d8 6c3f
00000010: 647c 7d3f 9be1 6d3f 110d 713f 027c 813f
00000020: ef16 6b3f 1be3 663f 0b23 633f dffc 6b3f
00000030: d792 6a3f d38b 583f 7e6d 683f ba0a 863f
00000040: 8380 683f 3d30 553f 9bb2 733f 3475 703f
00000050: 9356 823f 3bb3 723f 4001 723f 8976 703f
00000060: 9151 793f fa15 833f 8b02 6a3f a380 683f
00000070: 1591 763f eaea 693f 9ad6 633f 5efc 793f
00000080: d90c 763f 95ba 783f e63c 673f cc2d 6b3f
00000090: 48c5 683f d09d 683f 86e9 743f a201 623f
000000a0: af20 693f b2e0 713f c92f 723f 79c7 713f
000000b0: b66e 643f bce5 693f ce89 663f e6ad 6e3f
000000c0: e1d5 703f eedf 753f 5c3f 8d3f afe3 673f
000000d0: 800c 803f 9241 613f b7b3 8a3f ae41 673f
000000e0: baca 663f 4258 863f 1623 9c3f 3bde 853f
000000f0: 0d35 763f b71c 623f ac6f 583f 9af9 6e3f
00000100: 49d7 693f ace4 6d3f 9908 763f a8eb 743f
00000110: 8764 693f 6852 653f e50a 6b3f 296a 863f
00000120: 3436 863f 44c7 663f 1e31 5f3f 731c 963f
00000130: 0167 653f bb9a 883f 7131 663f bcdc 693f
00000140: 2a45 683f 4cb1 6f3f 78e9 623f a997 733f
00000150: 22ad 603f 8f5e 6b3f 5075 723f 6df8 803f
00000160: b1c4 673f a9e7 643f d21d 643f 938b 6f3f
00000170: 1832 623f 7def 643f e83e 773f a457 793f
00000180: 21cb 623f a8f3 7a3f 5097 763f 3242 673f
00000190: f86c 5d3f 3680 773f dc4a 673f 9c1b 823f
000001a0: 4adc 6a3f a3c5 673f a970 6e3f 13e5 7a3f
000001b0: 9bc5 673f e4cc 6c3f a28d 6d3f 897b 653f
000001c0: 7f34 633f d658 703f 4142 793f cc31 733f
000001d0: a237 6a3f 6f05 813f db41 733f 900f 6a3f
000001e0: 8e46 7b3f 1d17 7e3f d526 7d3f 2d81 8a3f
000001f0: dc75 8a3f 13ba 583f a020 613f ff42 6d3f
00000200: a719 5d3f 7dad 663f 85a0 613f 8d02 603f
00000210: 6a6b 743f 8906 6e3f e7dc 763f 2cd8 833f
00000220: d54d 7f3f dcf3 773f 3db3 773f c125 7f3f
00000230: 27be 713f 5793 6d3f 26e2 7d3f 3fb9 793f
00000240: f1c3 673f 61e2 6f3f 692f 703f e63c 643f
00000250: 0dcc 623f a8a3 623f 373e 7a3f 0dd1 6d3f
00000260: 78c5 6d3f 1435 753f ca26 663f 7ac6 7b3f
00000270: 8068 893f 0c08 5e3f 685b 603f d864 813f
00000280: 75c8 703f d086 6e3f 2183 723f 8062 713f
00000290: 8a5a 6d3f f3aa 6c3f 4297 843f b0de 693f
000002a0: 7c12 683f 259b 783f f336 6e3f cda9 7d3f
000002b0: 8ec3 7a3f 8b51 723f 28bb 653f c67d 683f
000002c0: d6fb 613f 42ec 693f 93cd 733f 7bd5 853f
000002d0: 030e 6e3f 8416 673f 8ec8 7c3f 91a5 723f
000002e0: 2dd5 753f e5c5 683f ca12 763f 616b 793f
000002f0: a427 603f e848 6e3f bd4d 633f 4cf0 693f
00000300: d547 723f e01c 643f fd18 683f d937 7a3f
00000310: 1c7f 783f 1ed5 5f3f e375 723f 45c6 8f3f
00000320: 917a 643f a45b 5b3f 9d63 6d3f 8f7c 763f
00000330: ef00 6e3f bb9d 653f e742 623f e4b8 663f
00000340: 47f8 743f 7e28 6a3f 3142 663f 54ff 623f
00000350: 896b 723f 96f3 813f 1192 6e3f 8252 713f
00000360: 5b9e 6d3f 4ee0 6b3f a349 6c3f b9c3 7e3f
00000370: 8650 653f 2d36 813f 11df 743f 5688 683f
00000380: 2979 6d3f 304e 613f c814 6b3f b86b 6f3f
00000390: 84a7 683f ae2c 663f 7ad2 753f daea 6c3f
000003a0: 6348 603f e069 693f 7aeb 623f d76f 6d3f
000003b0: 8052 703f 4a60 5a3f 3b78 6a3f 5ebb 6d3f
000003c0: df87 613f f3bf 743f 9a25 633f 1bb9 663f
000003d0: 3a78 6a3f 9329 7d3f 716f 673f e7e0 6a3f
000003e0: 7ed8 763f d756 683f 0b7c 663f 5b79 803f
000003f0: 07b1 6b3f 335c 713f 6d3b 733f fa7a 643f
0.8474386 0.9162655 0.9233715 0.9251742 0.9901793 0.9292237 0.9416056 1.0115969
0.9183187 0.90190285 0.88725346 0.92182726 0.9163031 0.84588355 0.9079207 1.0472023
0.90821093 0.8327673 0.95194405 0.9392884 1.018267 0.94804734 0.9453316 0.9393087
0.97390085 1.0241082 0.9141013 0.90821284 0.9631513 0.91374075 0.8899933 0.97650707
0.96113354 0.971597 0.903273 0.91866755 0.9092603 0.908658 0.9566883 0.8828374
0.91065496 0.9448348 0.94604164 0.94444996 0.8923143 0.9136617 0.90054023 0.932341
0.94076353 0.96044815 1.1034961 0.9058179 1.0003815 0.8799068 1.0836095 0.90334594
0.90153086 1.0495684 1.2198207 1.0458444 0.961747 0.88325065 0.845454 0.9334961
0.91344124 0.9292705 0.9610687 0.9567208 0.9116902 0.89578867 0.918135 1.0501148
1.0485291 0.90147805 0.8718432 1.1727432 0.89610296 1.067222 0.8991919 0.9135244
0.90730536 0.9362991 0.88637495 0.9515329 0.8776418 0.9194116 0.94710255 1.0075814
0.905345 0.89415985 0.89108 0.9357235 0.88357687 0.8942793 0.9658036 0.97399354
0.885912 0.9802804 0.96324635 0.9033538 0.864944 0.9668001 0.903486 1.0164676
0.91742384 0.90535945 0.93140656 0.9800579 0.90535897 0.9250014 0.9279424 0.89641625
0.8875198 0.9388555 0.9736672 0.9499786 0.9149114 1.0079783 0.9502236 0.91429996
0.9815453 0.9925402 0.9888738 1.0820671 1.0817218 0.84658927 0.87940407 0.9268035
0.8636727 0.9010847 0.8813556 0.8750389 0.954764 0.9297872 0.9643082 1.0300345
0.9972814 0.96856475 0.9675787 0.9966698 0.94430774 0.9280295 0.991732 0.9754829
0.9053336 0.937048 0.9382234 0.89155424 0.88592607 0.8853097 0.9775118 0.9289711
0.9287944 0.95784116 0.8990294 0.98349726 1.0735016 0.8673103 0.87639475 1.01089
0.94055873 0.9317446 0.94731337 0.94290924 0.92716277 0.9244835 1.035866 0.9135542
0.90653205 0.9711173 0.93052596 0.9908722 0.9795464 0.94655675 0.897387 0.90816915
0.88274896 0.91376126 0.95235556 1.0455774 0.9299013 0.9026873 0.9874352 0.94783884
0.96028405 0.90926963 0.9612242 0.9742947 0.87560487 0.93079996 0.88790494 0.9138229
0.94640857 0.8910656 0.9066313 0.97741467 0.97068954 0.87434566 0.9471113 1.1232382
0.8924952 0.8568671 0.9273012 0.9628381 0.92970175 0.896938 0.88383335 0.9012587
0.9569134 0.91468036 0.8994475 0.8867085 0.94695336 1.0152462 0.9319163 0.9426652
0.92819756 0.92139137 0.9229986 0.995174 0.89575994 1.0094658 0.9565287 0.9083303
0.92763 0.8800993 0.91828585 0.9352374 0.9088061 0.89911926 0.96024287 0.92545855
0.87610453 0.9117718 0.8864056 0.9274878 0.93875885 0.85303175 0.9158971 0.92864025
0.8809795 0.9560539 0.8872925 0.901262 0.915897 0.9889156 0.9040442 0.91749424
0.9642409 0.9075751 0.90033025 1.0037035 0.92067 0.9428131 0.9501255 0.8925015

network.1.bias f4 [256]
00000000: 0486 97bd fc21 71bd 038b 69bd 1a48 63bd
00000010: a159 25bd 5d72 5fbd 5b14 ebbc dfad 86bd
00000020: 4279 843b e2f9 cdbc 9e39 c5bc 670e ebbc
00000030: ba6d 8ebd 3e9b e4bd 88bc 27bd 3976 24be
00000040: eadd 21bc 39eb 64bd 4e28 08bd 3bb4 10bc
00000050: c615 9d3c 9886 dcbc 5c66 9bbd 6462 56bd
00000060: 1f6d 0cbe f55b 013c 2558 72bd f68e d5bc
00000070: b71f 9a3c 6e0f 843a 654c 10bd 11fb 79bd
00000080: 005a 9fbd b6d1 dfbc 1bd8 7bbc c6db 12bb
00000090: 55ad 15bd 81cf 4abd c5c5 2bbd 0c97 b4bd
000000a0: f742 d0bc f518 39bd 342b b9bd 7287 63bd
000000b0: 9539 8bbc b0d4 cabc 99a1 14bc f640 853c
000000c0: 68ad 8bbd 14e0 97ba ca71 3cbd 099c a0bd
000000d0: e50e 873c 71ad debd d2fb 203d d97e ffbc
000000e0: 4251 11bd 28f1 27bd 9560 31be e61c 1cbe
000000f0: 460b 1dbc 8aeb 87bd 9472 56bd 0b41 74bd
00000100: a525 2cbd c117 0cbd bb30 88bd 5638 ecbb
00000110: 2b08 59bd e8be 3fbd 3ea7 d1bc ebb1 30bd
00000120: 8569 c43d bcc0 b6bc dbff f7bc f875 c4bc
00000130: b457 9dbc 4e36 c7bd 6c2a 4cbd a6b5 8bbd
00000140: 4b9b 89bc e1f3 393c 7453 62bd 011c bdbd
00000150: 31f9 d1bd 3aa8 f6bc ae9c 143c 470f aebc
00000160: c10f 4cbd 16a4 f1bd d9f5 56bd 763e 393d
00000170: 1bc8 f5bc 4d83 84bd 7a6a bfba 43ee 40bc
00000180: 759b 0cbd bae6 25bd ca02 e9bb 1777 64bc
00000190: d46d 61bd d9a4 803c d1bc b7bd 2acf 353c
000001a0: 57e7 69bd e0bb fdbb 92a1 ebbc 173a 93bd
000001b0: f015 0abe 494a 25bd 70dd 5dbd edc6 8a3b
000001c0: 5247 18bd 21b9 ecbc 69d9 2dbd 0696 aebd
000001d0: cdb2 a6bb a44d 96bd 5e99 4abc 074d f1bc
000001e0: bec5 e63c b074 fc3c e2c2 a0bc 374c 3dbd
000001f0: 8527 c9bd 068b 74bd 2157 8dbd b2b0 bbbd
00000200: dd9b 6cbd 3430 7fbd 7674 9cbd 2bc9 d1bd
00000210: 5531 31be 2f16 77bc 5ba2 b4bd bd7c cfbd
00000220: fdb0 9bbd cd0f 26bb b496 b1bc c508 d2bc
00000230: adca 18bd 150b 37bd 702d 86bc 0ca1 853c
00000240: 86fd acbd d1b0 8abb cd37 25bd c121 97bd
00000250: 2151 b2bd be79 d8bd 460c 993a d7d0 97bd
00000260: 4f37 cebc d6d8 27bd 4e0d 67bd edeb 8abd
00000270: 4d2f e53b 5b6b babd 0b18 a6bd 1b33 e4bd
00000280: 9341 7d3d 9095 aabb f6d2 9e3c f3c0 9abd
00000290: 7569 7fbc 0b58 2dbd 8462 243d cdff e4bd
000002a0: eb19 cbbd 5c2e 25bc 22af 09bc 48cf 553c
000002b0: 2b90 2bbc 5920 a0bd ab5e 03be b3ab c1bd
000002c0: a6ec 23bd e975 8cbd c23a 13bc f82c 37bd
000002d0: 0185 a2bc 9df3 52bd 9acd 6cbd dd3e c4bc
000002e0: 9f67 fabc d0bc 05be bf14 1ebc e7c9 30bd
000002f0: 49e3 73bd b127 28bc 6e38 90bd ad7f 9abd
00000300: 165a 62bc d06b a8bd 5ada bebd b070 8cbd
00000310: ce29 06bd ac4a b2bd 6365 13bd 84ec a83d
00000320: c757 89bd b89d 91bd 843f fdbc 61b8 103c
00000330: f2f1 eabc 60cc d7bd f0aa 8cbd fb5f 78bc
00000340: c4e8 4fbd 9030 38bd e82b 7abd def2 9cbd
00000350: 91fd 003b 1254 a1bd 5cd8 50bb 0634 be3b
00000360: 27c1 3ebd f987 793b 38e4 8ebc a07c e2bd
00000370: 7937 10bd d9dc febc 09a4 033c f72a 4dbd
00000380: 5a3b b93b 3f8a 87bd 47fa 68bd 7012 693c
00000390: 63e2 81bd 0388 dfbc ba7e e83a 589a edbc
000003a0: bb63 fbbd cf95 15bd 8b47 2bbd 71c5 9abd
000003b0: d6d4 49bd 2ada f2bc b8ca adbd d32e 8dbc
000003c0: 4710 63bd 2d50 623b d70d 17bc d37d 2fbd
000003d0: 090e 97bd 0a03 16be 0984 9ebd e920 b63c
000003e0: af59 3dbd d378 d4bc a8df 4cbb 0d0a dc3a
000003f0: 258f 58bd c725 a4bd c821 3abd 3d32 90bd
-0.07398608 -0.0588703 -0.057017338 -0.055488683 -0.04036868 -0.054552425 -0.02869623 -0.06576132
0.0040427754 -0.025143567 -0.024075326 -0.028693391 -0.069545224 -0.111624226 -0.04095128 -0.16060723
-0.009879569 -0.05588839 -0.033241563 -0.008832033 0.019175421 -0.026919648 -0.07587883 -0.052339926
-0.13713501 0.007895459 -0.059166092 -0.026069146 0.018813951 0.0010075399 -0.035229106 -0.06103045
-0.07780838 -0.027321678 -0.015371348 -0.0022408827 -0.036542255 -0.049514297 -0.041936655 -0.088178724
-0.025422556 -0.045189817 -0.090414435 -0.055549093 -0.01699523 -0.02475962 -0.009071731 0.016266327
-0.06820184 -0.0011587166 -0.046006955 -0.07842261 0.016486594 -0.10872925 0.039302655 -0.031188415
-0.035477884 -0.04100147 -0.17322 -0.15245399 -0.009585207 -0.066367224 -0.052355364 -0.059632342
-0.042028088 -0.03420234 -0.066499196 -0.007208864 -0.052986305 -0.04681292 -0.025592443 -0.043138426
0.09590439 -0.0223087 -0.030273369 -0.023982033 -0.01920686 -0.09727155 -0.049845144 -0.06821756
-0.016797682 0.011349649 -0.05525537 -0.09233857 -0.102526076 -0.030109514 0.0090705585 -0.02124752
-0.04981971 -0.11798875 -0.052480552 0.045225583 -0.030002644 -0.06470356 -0.0014603876 -0.011775556
-0.034327943 -0.04050324 -0.007110928 -0.013944409 -0.05503638 0.015703605 -0.08971561 0.011096755
-0.05710539 -0.0077433437 -0.028763566 -0.07188814 -0.13484931 -0.040354047 -0.054166257 0.0042351396
-0.03717739 -0.02889687 -0.042443667 -0.085247084 -0.0050872327 -0.073390275 -0.012365667 -0.029455675
0.028170463 0.03081736 -0.019624177 -0.046215262 -0.09821991 -0.059702896 -0.06901384 -0.09164561
-0.05776583 -0.06230183 -0.07639401 -0.10243448 -0.17303975 -0.015080973 -0.08820029 -0.10131214
-0.07602117 -0.0025339008 -0.021678306 -0.025638947 -0.03730266 -0.044688303 -0.016379088 0.016312145
-0.08446793 -0.004232504 -0.04033642 -0.07379485 -0.0870688 -0.105700955 0.0011676631 -0.0741288
-0.025172858 -0.040978275 -0.056409173 -0.067832805 0.006994164 -0.09102508 -0.081100546 -0.1114256
0.061830115 -0.0052058175 0.019387703 -0.075563334 -0.015589108 -0.042320292 0.040133014 -0.111816026
-0.09917053 -0.010081854 -0.008403571 0.013049908 -0.010471384 -0.0781867 -0.12829082 -0.09456577
-0.040020607 -0.06858427 -0.008986177 -0.04472062 -0.019838812 -0.05150186 -0.057813264 -0.023955757
-0.030566989 -0.13060308 -0.009648501 -0.0431613 -0.059542928 -0.010263369 -0.07042013 -0.075438835
-0.0138154235 -0.082236886 -0.09318991 -0.06857431 -0.03275471 -0.08705649 -0.03598536 0.08248237
-0.06706195 -0.071101606 -0.030914076 0.008833022 -0.028679822 -0.10537028 -0.06868541 -0.015159602
-0.050759092 -0.044968188 -0.06107703 -0.07663511 0.0019682387 -0.07877363 -0.0031867241 0.0058045415
-0.046570923 0.003807543 -0.017442808 -0.110589266 -0.035209153 -0.031111168 0.0080347145 -0.050089803
0.005652827 -0.06618165 -0.056879308 0.014225587 -0.06342008 -0.027286535 0.0017737963 -0.02900426
-0.122748815 -0.03651982 -0.041816276 -0.0755719 -0.04927524 -0.029645044 -0.08485931 -0.017234242
-0.055435445 0.0034532652 -0.009219608 -0.042844605 -0.07375724 -0.14649597 -0.077400275 0.02223249
-0.046228107 -0.02593652 -0.003126124 0.0016787663 -0.05287089 -0.08015018 -0.045442373 -0.07040832

network.1.running_mean f4 [256]
00000000: 978f b2bb 8237 93bb fc48 8b3b 0638 b23b
00000010: 4953 e8ba 9dce 8f3b a38c 88bb d3d0 16bc
00000020: 079d 233b 800b 9437 db34 07bc f87a ec39
00000030: 7ee7 97bb c8cf 223c ae0c c93b ab4c 47bb
00000040: ed42 17bc d448 3c3b d0be 4e3a 6e1c 11bb
00000050: e9d4 143b 332a 60bc 31a5 8a3b cfa0 b1bb
00000060: 1818 043b 1364 97bb dcc2 83bc 3667 47bc
00000070: 18c4 a03b 0aae 533c 2b3b 9bbb 9da4 2d3b
00000080: c1aa d83b 3074 b9b8 30ef e3b9 f36d d03b
00000090: 1880 40bc e405 fbba 865d 983b fb9f 68bc
000000a0: 69f9 95bb bc94 023a dba7 fbbb 4e8c d1bb
000000b0: 4e81 ac3b 466e 203c 21c0 4cbb 863b 143b
000000c0: a6ca 1b3c edfe 503c 6ed6 97ba 615e adbb
000000d0: 9960 3dba 2c64 873c e0ef 893a 2e9a a03a
000000e0: fb90 873b 3226 683a acf6 ecba 9f23 80bb
000000f0: 0e2f 5cba bb4d bb3b 2e89 58bc fb82 263c
00000100: fe82 ffba 4808 a2bb 96a6 efbb 10a3 ccbb
00000110: b4e0 533c 0c3e 943b 6ae9 38bb 7498 a939
00000120: 5ef8 b63b ba27 90bc c247 a53b 193e f3ba
00000130: fea8 6f3b 5ca6 06bb 61aa 6cbb 44f3 0a3a
00000140: fb77 0e3c 5067 e9bb 0053 3737 d99e 2e3c
00000150: f287 b5bb 2402 5dbc 3eb5 dbbb d62a 6fbc
00000160: 2ab1 2ebc 14ec 1d3c 75ad bdbb 50bf b3b9
00000170: 7dd1 5bbc d021 86bb ac14 20b9 c46e da3b
00000180: f29d 9f3a 8839 5e3b 5f5b 70bc 962f eb3b
00000190: e001 34bb 1aaa 4f3c 26da 813c beee 06bc
000001a0: 4071 2a39 0277 873a ce72 933b 8239 08bc
000001b0: 271f 06bc 57c1 e6bb c0d7 81bb 42a0 943a
000001c0: 1463 40bc 86ac 653b 0891 c7bb ef90 6f3c
000001d0: 3008 a03b afba 0abb cf64 f63b 9a2c ac3a
000001e0: c08e 5ab9 e610 163b 549a 793b cdc7 e43a
000001f0: 203e 8dbb c4b5 1e3c 40fe fdb9 1fab 053b
00000200: a80f 3fbb 2640 0cba f495 3bbb f4ce a6bc
00000210: da78 62bb 72aa 243b e1de 0ebc d068 6bbb
00000220: 06bb a1bb 30d2 ee3a bda1 763b 15a7 ac3a
00000230: 283c dcbb 00fe 863b fa7a ccba 8bd0 ef3b
00000240: 844a 1d3a bfa9 333b 9478 5bba 3234 1e3b
00000250: 18d4 063c 7ff7 4ebb dba5 58bb 720d 113c
00000260: 1010 0ab9 652b 8a3b 804d 9ebc e4b2 26ba
00000270: 8d4b 0aba c6e4 2d3b f400 8fb9 0b30 b1bb
00000280: cc23 9ebb 7089 a63b dfdb 80bb 5a1c dfba
00000290: aa76 db3b 653c 10bc 3177 5bbb 209d f0ba
000002a0: f25d 7e3c 7f13 9abb 33d8 3a3c 8a4c 523c
000002b0: 4d09 3bbb 9822 253b 0432 013c 8af3 cfbb
000002c0: 2f26 73bc 06ca 1cbc 8a1f c6bb 0ad3 d5ba
000002d0: 0480 a5bb 9f0a eebb 9e93 bf3b 79a8 b4bb
000002e0: f821 133a abf3 2ebb f0d3 db38 f764 a2bb
000002f0: ede1 f9bb 3d32 5fba 7dc6 48bc eefa 09bc
00000300: 3d4f 34bc e703 71bb e241 d5bb d803 08ba
00000310: 8e19 84bb 17d2 153c f062 3e3c bec9 a53a
00000320: c82b 85bb 2ca0 9aba 2640 be3b f9d7 97ba
00000330: f0de 23bb 5c3d baba 9d45 cf3b 6523 4fbc
00000340: 5577 03bc 0ce1 1aba a0d7 423c 1205 ffbb
00000350: 045e 013c 5547 10bb 6239 443c 54f2 a2bc
00000360: c3d2 1e3b 8c80 643c 1413 093b e0a5 33bb
00000370: 1648 963a c5b2 38bc e049 00ba 9ea1 823b
00000380: 6073 503c 1897 f0bb 5c1a 34bb ee5b 05bc
00000390: 10eb 73bb cee9 9bbb eb4b 19bb 6848 123c
000003a0: 9418 e9ba 7c04 5b3a b37e ea3b ab18 06ba
000003b0: 1e7b 57bb 295b 8cba b0c3 ddba ae39 883c
000003c0: 06d6 333b 6c36 493c e9e8 393b ae8d e1bb
000003d0: 8ec8 90bb dcc1 18bb d9b8 7a3a ad10 8abb
000003e0: 4953 35bb 9c89 67bc d960 be3b bf1c ceba
000003f0: 4c23 afba b5ca 183b 31c8 953b fd28 94bb
-0.005449246 -0.004492701 0.004250644 0.0054388074 -0.0017725016 0.004388644 -0.004167156 -0.009205061
0.0024965422 1.764833e-05 -0.008252348 0.00045105047 -0.0046357503 0.009937234 0.0061355447 -0.0030410688
-0.009232265 0.0028729932 0.00078867096 -0.002214219 0.0022709912 -0.013681936 0.004231118 -0.005420781
0.0020155963 -0.004620084 -0.016084127 -0.0121706035 0.0049061887 0.012919912 -0.004737278 0.0026495822
0.0066121523 -8.843129e-05 -0.00043475023 0.006360763 -0.01174929 -0.0019151536 0.0046498207 -0.014198299
-0.004576851 0.00049812696 -0.007679922 -0.0063948995 0.0052644378 0.009791916 -0.0031242447 0.0022618487
0.009508764 0.012756092 -0.0011584291 -0.005290792 -0.0007224172 0.016527258 0.0010523759 0.001225298
0.004137156 0.0008855789 -0.0018078885 -0.0039104964 -0.00083993457 0.0057160533 -0.0132163 0.010163064
-0.0019493995 -0.004944835 -0.0073135598 -0.0062450245 0.012931991 0.004523998 -0.0028215297 0.00032347778
0.005583807 -0.017597068 0.0050439546 -0.0018557935 0.0036569233 -0.0020545935 -0.0036112296 0.00053005316
0.008695598 -0.0071229115 1.0926975e-05 0.010657989 -0.0055398876 -0.01348928 -0.0067049554 -0.014597615
-0.010662356 0.009638805 -0.0057885 -0.0003428408 -0.013416645 -0.0040933862 -0.0001526649 0.0066660363
0.0012177809 0.0033908803 -0.014670222 0.0071773035 -0.0027466938 0.012674833 0.015851092 -0.0082356315
0.00016254652 0.001033515 0.00449977 -0.008314492 -0.008186138 -0.007042091 -0.003962487 0.0011339264
-0.011742372 0.003504546 -0.006090287 0.014621957 0.0048837885 -0.00211684 0.0075193415 0.0013135851
-0.00020843279 0.0022898256 0.0038086371 0.0017454565 -0.0043103844 0.009686891 -0.0004844535 0.0020396186
-0.002915362 -0.0005350135 -0.0028623315 -0.020362355 -0.0034556896 0.0025126007 -0.008720131 -0.0035920627
-0.004935625 0.00182206 0.0037633025 0.0013172353 -0.0067210384 0.0041196346 -0.0015600615 0.0073185614
0.00060001784 0.002741441 -0.00083721546 0.0024139998 0.008229278 -0.0031580625 -0.0033057842 0.008853303
-0.0001316669 0.004216599 -0.019324064 -0.0006359054 -0.000527554 0.0026534065 -0.00027275796 -0.0054073385
-0.0048260447 0.005082302 -0.0039324607 -0.0017021999 0.0066974955 -0.008803462 -0.0033487792 -0.0018357374
0.015525328 -0.004702031 0.011404085 0.012835631 -0.002853948 0.0025197621 0.00788546 -0.006346171
-0.014840647 -0.0095696505 -0.00604624 -0.0016313505 -0.005050661 -0.0072644497 0.0058464548 -0.0055132476
0.0005612667 -0.002669553 0.0001048221 -0.0049558836 -0.0076258094 -0.0008514261 -0.012254355 -0.008421643
-0.01100522 -0.0036776008 -0.006508098 -0.0005188561 -0.0040313667 0.009144328 0.011620268 0.0012648625
-0.004064057 -0.0011797003 0.005805987 -0.0011584751 -0.0025004707 -0.001420896 0.006325437 -0.012642716
-0.008024056 -0.00059081684 0.011892229 -0.007782587 0.00789595 -0.0022015173 0.011976572 -0.019890942
0.002423451 0.013946664 0.0020915912 -0.0027412102 0.0011465575 -0.011273091 -0.0004893821 0.0039865514
0.01272282 -0.0073422305 -0.0027481532 -0.0081395935 -0.0037218966 -0.0047580963 -0.0023391198 0.008928396
-0.0017783814 0.0008354855 0.007156217 -0.000511537 -0.003287978 -0.001070832 -0.0016919281 0.016629066
0.00274408 0.012281042 0.0028367585 -0.0068833446 -0.004418439 -0.0023308909 0.00095642876 -0.0042134137
-0.002766805 -0.01413193 0.005809885 -0.001572512 -0.001336196 0.0023314182 0.004570984 -0.0045214877

network.1.running_var f4 [256]
00000000: bdcc 8c3d 5753 bf3d 8d42 383d 6094 853d
00000010: cebb 193d 410f 8a3d 3c71 173d a15c 5c3d
00000020: 5714 013d 4f1a d93d 050b 053e 2c05 b03c
00000030: a538 e43c 64c6 1f3e 2ad9 d93d e631 863c
00000040: 97b4 8e3d aeb6 0d3e 4503 0f3d be1e fb3d
00000050: 1cad a73c 0d6e bf3d 0195 923d 6f54 0e3d
00000060: afea 863d 5e86 c93c 6091 d23d c4c8 d23d
00000070: d842 6a3d f5ad c83d 4edc c13d ec3e 4f3d
00000080: 5bb2 ae3d 2bb3 263d ad6d 333d 5bac 2b3e
00000090: 90ad fd3d 953f cf3d c1fa 523d 8188 eb3d
000000a0: 8467 8f3d 6887 bd3d 5005 323d 366c 973d
000000b0: 4591 053d 48b0 f03d a909 a53d e68c 043d
000000c0: 75aa a73d 953d 2c3e a76e 273c c867 a43d
000000d0: 36ef 3c3d 7772 f53d 233e 153d 1eb5 b83d
000000e0: 1447 993d 2790 1e3d 1c1c ad3b 3883 0b3d
000000f0: e8b9 103e 1fd1 f23d 9ad0 943d 1963 3e3e
00000100: de95 a03d 986d f03d 3545 523d a659 9c3d
00000110: 69d3 0f3e 9268 263e b604 b03d 623c 0f3d
00000120: 3916 333d e7fa 2a3e 5d2a ea3d 1d95 683c
00000130: f119 f33c 32eb 153c 137c cb3d fa27 cd3d
00000140: 09d7 ce3d 02af 053e 393d 1b3d 63bf 473d
00000150: 8d01 273d 48f8 5a3d 3e79 933c f191 f33d
00000160: 7e09 f63d 3be2 8a3d 6f57 1d3e 79d6 933d
00000170: 55cd 9e3d 4f78 bc3d 8076 8e3d 77e0 4e3d
00000180: 383c d33d c9b1 d43d 237a 4e3e 0574 d73d
00000190: 6a04 ff3c 327e d53d aa95 fa3d 3176 3b3d
000001a0: 9150 0c3d fba9 363d 53ba f03d 81d9 2d3d
000001b0: 4c6b c33d b65b b63d 6871 b93d 86e5 be3d
000001c0: 6b78 6c3d 94cb 673d 1528 1a3d a3a7 d13d
000001d0: d085 873d ad0e b23c 475d b73d d1ae 033d
000001e0: 64bb 903c a64f c43d 292c 783d 4cba 1c3d
000001f0: c3e1 c13c 6d12 093e 1adb 103e 95f2 a43c
00000200: df42 4c3d 0420 a03d b27e 923d bed3 5c3e
00000210: 0257 e03c 528d a43d 1c54 6a3d d073 1b3d
00000220: de9a 0e3d 34dc 833d 0947 9c3d b013 773c
00000230: 1d11 e93d 6b85 ca3c 0a82 c63c 7fd1 203d
00000240: 7e9c 073d 71c3 023e 6aa8 a33d 0601 523d
00000250: eb4e 473d 2a35 123e 2c57 9f3d 80e9 ae3d
00000260: e45e 283d d30d 963d 49cc 223e f9f3 5b3c
00000270: 0879 3c3c 6d55 b43d 09b0 cc3d 0a13 fa3c
00000280: 11a4 d73c 56c1 c23d 22d6 863d 5b8e f53c
00000290: 5836 903d 4583 283e 74e3 e73c 630d c13d
000002a0: b275 b33d d5fb 593d 1898 a53d 221a c53d
000002b0: cc75 3e3d da37 433d 3fb8 a43d d22c fb3c
000002c0: cf0e 093e dd9f bb3d b666 6f3d 563f bf3b
000002d0: 9df6 433d 46e1 c43d e917 983d 1b85 0d3e
000002e0: b4a6 323d 910d 443d a782 2f3d 907d 803d
000002f0: 0b24 193d 26b5 e03d a577 df3d ae19 0c3d
00000300: a6c7 003e 9d53 a63d e717 f93d 7d65 b83d
00000310: 1c12 103d baec 5f3d 3c77 ae3d d5dd 6d3c
00000320: 2f4c 4e3d d7dc 283d 7c1a b53d 52fd 6d3c
00000330: 0022 623d 7427 403d 2439 0e3e d44e cd3d
00000340: 5f53 b13d e715 443d c1ed a73d 8896 883d
00000350: 80f1 973d caf8 2d3c 9fc8 ad3d 4d97 c83d
00000360: e4f9 e73d 42d5 cf3d d7b7 c33d ed55 723c
00000370: b08b 033e 1f3d b73d 238d 073d bdba 9d3d
00000380: b753 d13d 526f f23c c847 143d 9e3e a53d
00000390: 9eda 353d 4afa 5f3d 8aea fd3c 3462 3b3d
000003a0: 6c98 083e 4ff3 bc3d d3ae bd3d b4bc 253e
000003b0: 47fe 2c3d 1114 b93d a3d1 d23d 576c cd3d
000003c0: 27ef 703d 50b6 b23d 67a7 453e a783 cd3d
000003d0: f261 b63d 4d90 533d fe45 043e f3cb 013e
000003e0: 9c77 9d3d 537e a63d 3149 643d d3fe 9a3c
000003f0: 086c c83c e697 1d3d 6bf0 3c3d 2243 4b3d
0.06874988 0.09342068 0.044985343 0.06522441 0.03753262 0.06741191 0.036973223 0.053799275
0.03151354 0.10600721 0.12992485 0.021486841 0.027859041 0.15603024 0.10637124 0.016381215
0.069680385 0.13839218 0.034915227 0.12261723 0.020468287 0.093471624 0.071573265 0.03474849
0.06587731 0.024600204 0.10281634 0.10292199 0.057192653 0.09798805 0.09465848 0.050597116
0.08530112 0.04069821 0.043805767 0.16764967 0.1238662 0.10119549 0.05150867 0.115006454
0.07002166 0.09254342 0.043462098 0.073936865 0.032609243 0.11752373 0.08058483 0.032360934
0.08186809 0.16820367 0.010219253 0.08027607 0.046126567 0.11984723 0.03643621 0.0901892
0.0748426 0.038711693 0.005282892 0.034060687 0.14133418 0.11856293 0.0726635 0.1859249
0.07841085 0.11739653 0.051335532 0.076342866 0.1404549 0.16250828 0.085946485 0.034969695
0.043722365 0.16697274 0.114338614 0.014195708 0.029675456 0.009150313 0.09935775 0.100173905
0.100996085 0.13055041 0.037900183 0.048766505 0.040772963 0.053459436 0.018002149 0.118930705
0.12013529 0.06781431 0.15365385 0.07218642 0.07754008 0.092026345 0.06956196 0.050507035
0.1031422 0.10385472 0.20163779 0.10520176 0.031130034 0.104244605 0.122355774 0.045767013
0.03425652 0.0445957 0.117542885 0.042443756 0.0954195 0.08904211 0.09054834 0.09321122
0.057732027 0.05659063 0.03763588 0.10237052 0.066173196 0.021735514 0.08953338 0.03214914
0.01766748 0.09585504 0.06058899 0.038263604 0.023667222 0.13385935 0.1414608 0.020135203
0.04986846 0.078186065 0.071530715 0.21565148 0.027385239 0.08034767 0.05720912 0.037952244
0.03481566 0.06438485 0.076307364 0.015080377 0.11380217 0.024721822 0.02423193 0.03926229
0.033108227 0.12769867 0.07991107 0.051270507 0.048659246 0.14278093 0.077802986 0.0854063
0.04110612 0.073268555 0.15898241 0.013424867 0.0115034655 0.08805356 0.099945135 0.030526657
0.02632335 0.09509532 0.06583811 0.029975107 0.07041615 0.16456325 0.0283067 0.094263814
0.08762683 0.05321868 0.0808565 0.09624125 0.04649906 0.047660686 0.08042955 0.03066102
0.13384555 0.09161351 0.058447562 0.0058364077 0.04784261 0.0961328 0.074264355 0.13820307
0.04361601 0.0478645 0.04284921 0.06273949 0.03738789 0.10972051 0.10911492 0.034204178
0.1257616 0.08121417 0.12162762 0.09003732 0.03517352 0.05466912 0.08518836 0.014518221
0.050365623 0.041226234 0.08842942 0.014525728 0.055208206 0.046912625 0.13888985 0.10024801
0.0865848 0.04787245 0.08199645 0.066693366 0.07419109 0.010618398 0.08485531 0.09794483
0.1132696 0.101480976 0.09556549 0.014790994 0.12846255 0.08947205 0.033093583 0.07701633
0.102210455 0.029594097 0.03620127 0.08068584 0.044397943 0.054682054 0.030995626 0.04574795
0.13339394 0.09226095 0.09261861 0.16185266 0.042234685 0.090370305 0.10293891 0.1003043
0.058821823 0.087261796 0.1930214 0.10034876 0.089054 0.051651288 0.12917325 0.12675457
0.07688829 0.08129563 0.055733863 0.018920338 0.024465576 0.03847494 0.046127718 0.04962457

network.4.weight f4 [128, 256]
00000000: bf9b 88bd 703f e7bc ed91 113d 76d5 fcbd
00000010: 31fc f4bc bb28 283c 13c6 9dbd f6ae 02be
00000020: c788 ad3d 9287 123d 25d8 a93d 7161 5d3d
00000030: 2af5 92bd 26e7 d93d 158c 863d b8f8 d13b
00000040: 1a7e f03d a73e 453b 6a3c 20be b252 003e
00000050: fb0d 30bc 9127 07be a135 71bb 31d6 e73c
00000060: 012e bfbd 5826 bf3c b2f0 9cbd 3af7 cebd
00000070: ea5f 723d a5f8 073d 5023 c43d af24 0dbe
00000080: 3f8b 393d c13b 55bd 028e a9bd 2274 4f3d
00000090: 8253 cabd d2c5 b9bd ffa5 c63d 8ff6 7ebd
000000a0: ed18 d7bd 1e19 6bbd f930 5a3d 404a 8b3d
000000b0: c1e2 cd3d c576 b1bd 433e 3a3d b68d 37bd
000000c0: 8895 c1bd cdf2 c03c 954d 8f3d 670a ae3d
000000d0: d803 babc e276 3a3d 967b 62bd 763e c0bd
000000e0: 70a5 183d d6df b8bd 7fa0 c3bd cc7c 85bd
000000f0: da55 20bd c468 c9bd 82c7 c8bd ade1 44bd
00000100: f635 fa3d d04b c83d 2540 b3bd c1a5 0dbe
00000110: b894 d1bb 778a a3bd 7584 cbbb 726f 593d
00000120: 4ad6 58bd 3989 5b3d 5e89 39bc 6678 1ebe
00000130: eb97 b13c 4095 af3b f3e5 b8ba 3eff 063d
00000140: 6b40 07bb 88e4 08bd 7d4c b53c f8c1 4abd
00000150: 6405 91bd a3aa 2f3d 230f 06bd 42ef 883d
00000160: 2082 5fbd 3362 aebd 93c9 0a3d 8483 60bd
00000170: 601f 803d 0546 843d 01cc 283d 2cee a3bc
00000180: d327 ac3d f7e8 463d abc7 e03d d33d 533d
00000190: 4ba6 5fbb ed6d c6bd 57d6 06bd 31fe 02be
000001a0: ab0b ab3d 3c69 c4bb 8385 5f3d f7d9 d3bd
000001b0: 1e90 42bd 8fda f13d 6845 a9bc e876 cb3d
000001c0: 6c10 423d 77bc 8c3d 7dfc ffbd 4399 0f3d
000001d0: dc58 a63d 7c36 d8bb 12a3 6ebd 62f7 c8bb
000001e0: 574c bd3d bfcb 853c 0c84 7dbd d6f0 23be
000001f0: e7be ccbd 707d d43d 07a8 20bc 7d34 e2bd
00000200: 4db6 f0b9 f07a 83bd 102b b7bc acf5 993c
00000210: 706b 133d 3028 1e3c 5c3a 2dbe 2fbd a8bc
00000220: 0216 5cbe 1a66 84bd b030 f2bd d062 b0ba
00000230: 8a27 08be 76d1 e43c 8d62 dcbd 6528 443d
00000240: 26a5 a4bd d2d3 f63d abdf 9f3d 9dd3 90bd
00000250: 83a3 383c 0870 c7bd 29e1 033e b51e 8cbd
00000260: 6cd0 d33d 0d30 1b3e 8eec 053d ec2b b4bd
00000270: e092 06bd 7629 ed3d bcb4 4dbd 3932 03be
00000280: 58fa c6bb 1b18 8e3d b1cd 5a3c 21fe 15be
00000290: 247f babc 5cfc 8e3d 6c46 a5bd 8b33 89bd
000002a0: ad23 af3d 4ae7 653d 84bf 923d 78c3 8f3c
000002b0: af1f aebd 19d2 8cbb f8d2 b3bc 4ab0 01be
000002c0: 93b0 463d b72f 17bd b106 e33d 533a e3bd
000002d0: aad4 253d aefd a83d 94c2 81bd 8c75 b9bd
000002e0: 9be5 0ebd 37ff d6bc a774 053e 45d5 973c
000002f0: e01a f53c 63e5 913d 1ac1 6a3d bfd4 55bc
00000300: f881 d23d da07 003e f7e7 c13c 7e76 5e3d
00000310: 85b5 0bbc b25f 8abc d1ba e3bb 7978 983d
00000320: 9dd6 903d 9e90 3d3d 4747 b53d 40a7 bbbd
00000330: f461 243d 9796 a1bd 8ace be3d 2c82 ce3d
00000340: f45e 27bd a332 78bc 3866 47bd 63c7 913c
00000350: c166 c5bb 7267 8bbd 966f cbbd 721a debb
00000360: 3d0f 123e 95c6 b53d 0aae 6fbd a85d 533d
00000370: 6914 9cbc c416 4fbe bb2a c53c 9525 c13b
00000380: 8c7f cd3d fb4a 7a38 7568 ae3c c389 ecbd
00000390: 4ef4 39bd b4b2 a8bd 3991 5cbd d49e 603d
000003a0: 9aea 57bd 51b2 2bbd 4933 a33d d8c1 973c
000003b0: fa61 c9bc c460 b73d 7c85 b13c 5422 133d
000003c0: 651f c2bd f528 cd3d 9163 25bd 4490 89bd
000003d0: 5080 fdbd 0b35 2a3c 4449 bcbd f58a a5bd
000003e0: 2de4 083d 26c4 8cbb 081a 1c3d cae7 71bc
000003f0: 1975 963d 1926 90bd 1e19 a43b d575 423d
-0.06670331 -0.028228492 0.035539556 -0.12345402 -0.02990541 0.010263617 -0.07703795 -0.12762055
0.08473354 0.03577382 0.082931794 0.054048005 -0.071756676 0.10639791 0.06569687 0.0064078234
0.11742802 0.0030097158 -0.15648046 0.12531546 -0.010745521 -0.13198687 -0.0036805647 0.028300377
-0.093349464 0.023333713 -0.076630965 -0.101057485 0.059173502 0.03319611 0.09577048 -0.13783525
0.04529881 -0.05205894 -0.08279039 0.050647862 -0.09879209 -0.09070934 0.0969963 -0.062246855
-0.10502801 -0.057397 0.05326936 0.068012714 0.100530155 -0.086652316 0.045469534 -0.04481288
-0.09452349 0.023553276 0.069972195 0.08498078 -0.022706911 0.04552353 -0.055293642 -0.093869135
0.03726715 -0.09027068 -0.095520966 -0.06517944 -0.039144374 -0.098344356 -0.09803678 -0.048066784
0.122173235 0.09780085 -0.08752469 -0.13832761 -0.0063959025 -0.079853944 -0.0062108585 0.0530848
-0.052938737 0.053597663 -0.011324255 -0.15475616 0.021678885 0.005358368 -0.0014106616 0.03295826
-0.0020637761 -0.03342107 0.022131199 -0.04950139 -0.07081106 0.04288734 -0.03272928 0.0668626
-0.054567456 -0.08514824 0.033883642 -0.054812923 0.06255984 0.06458668 0.04121018 -0.02001103
0.08406033 0.048562016 0.10975584 0.051572632 -0.0034126218 -0.096889354 -0.032919254 -0.12792279
0.08351835 -0.00599399 0.054570686 -0.10344308 -0.047500722 0.11809265 -0.020662978 0.09934789
0.047378942 0.06871884 -0.1249933 0.03505827 0.08122417 -0.006598292 -0.058260985 -0.006133006
0.09243076 0.016332505 -0.061893508 -0.1600984 -0.09997349 0.10375488 -0.009805686 -0.110451676
-0.00045912192 -0.06419933 -0.022359401 0.018793903 0.035991132 0.009653136 -0.16916794 -0.020598022
-0.2149277 -0.06464787 -0.11825693 -0.0013457183 -0.13296333 0.02793191 -0.107609846 0.047890086
-0.08039312 0.1205212 0.07806333 -0.07071612 0.011269453 -0.09738165 0.1287886 -0.068417944
0.10342488 0.15155049 0.0326963 -0.0879744 -0.032854915 0.11580174 -0.05022119 -0.12812127
-0.006072324 0.069381915 0.013354705 -0.14647724 -0.022765703 0.069817275 -0.080700725 -0.06699284
0.085517265 0.056128778 0.07165435 0.017549261 -0.08502137 -0.0042975065 -0.021951184 -0.12664905
0.048508238 -0.03691074 0.11085261 -0.11095109 0.040486015 0.082515106 -0.06335941 -0.090556234
-0.034886938 -0.026244743 0.1303278 0.018534312 0.029920042 0.0712383 0.057313062 -0.013051211
0.10278696 0.12502995 0.02367018 0.05431222 -0.008527164 -0.016891334 -0.0069497605 0.07444853
0.07072184 0.046280496 0.08851486 -0.0916276 0.040132478 -0.07890051 0.09316738 0.10083422
-0.04086204 -0.0151487915 -0.048681468 0.01779527 -0.006024212 -0.0680684 -0.09933393 -0.006778055
0.14263625 0.08875767 -0.058515586 0.05160299 -0.019052701 -0.20223528 0.024068227 0.0058943727
0.10034093 5.9674476e-05 0.021290043 -0.115497135 -0.045399003 -0.0823721 -0.053849433 0.05483897
-0.052713968 -0.041918103 0.07968766 0.01852505 -0.024582852 0.089540035 0.021670096 0.03592141
-0.09478644 0.100175776 -0.040378157 -0.067169696 -0.12377989 0.010388623 -0.09193662 -0.080831446
0.03342073 -0.0042958437 0.038110763 -0.0147647355 0.07346553 -0.070385166 0.005007877 0.047475655

network.4.bias f4 [128]
00000000: def0 e936 c4b0 1eb6 d46d e8b6 08ea f8b5
00000010: 5cb3 3237 02bb deb6 4b14 65b6 6ecb f335
00000020: 2d1f c336 8ed1 cdb6 ced2 c2b6 722d b9b6
00000030: 740b 05b7 205f f3b6 9695 1c36 9a94 19b6
00000040: 379c 8734 3828 9d33 30e3 5d36 965d 4236
00000050: 6947 33b6 5085 90b4 c61e ebb5 81f2 d1b6
00000060: 1999 5536 acca 0ab6 d0b8 aab5 11d6 bfb5
00000070: 9d09 1936 fc9b 3b36 90ae 0a35 4998 25b6
00000080: 060e 3d36 f45c 46b5 0677 71b6 3b63 0537
00000090: c4b0 8535 ac90 0fb6 3ddb 29b6 0d5b 8435
000000a0: 6e8a 2636 8c07 6836 2ac2 e736 0370 9535
000000b0: d025 c534 f5e5 9d36 7805 e0b6 b059 6937
000000c0: c562 4935 68e4 0535 a863 d334 4c1f 7237
000000d0: 4a61 2036 b1a5 beb6 f607 da35 1a57 c0b5
000000e0: f0f2 5b35 fee5 ecb5 7e2c 7bb6 5901 f036
000000f0: ea58 d036 408b f9b6 91b5 4d36 ff39 e2b5
00000100: 7aa7 e135 c888 3ab5 d5e0 a4b6 c97d 7534
00000110: d88f 9fb5 09a1 dbb5 689c 7836 d4fc b5b4
00000120: 9642 4d36 8423 74b7 cdc1 42b5 1035 8434
00000130: 8805 39b6 40e0 fe34 309c c4b5 6e15 e435
00000140: ae12 01b6 7d9a 5fb5 0655 30b5 280b 9f35
00000150: 61f5 1bb7 82a6 1836 e0fa 81b3 403c 7232
00000160: 7a8e 3637 fc43 21b6 3a66 c1b6 58c8 dd34
00000170: 82cf 1fb7 7624 b6b5 6131 5636 9fac 4736
00000180: 8c3c 39b7 7e6a b5b5 c067 d433 7875 1ab6
00000190: c3f7 9035 f87d 12b6 2e82 8836 7025 d6b4
000001a0: 56e1 7035 5890 eeb4 d078 4936 d435 c934
000001b0: 9250 af36 6ea3 8134 dc3c 1ab5 809b 7634
000001c0: b0d2 1a37 25fe a034 f0ef a9b6 8c6b 6db7
000001d0: c3ff 8336 3a95 ffb5 ef9e dcb6 03f5 e1b6
000001e0: 6452 39b6 3006 2db7 6601 00b7 9233 19b7
000001f0: a2d5 3bb6 bcca 43b6 12bd 18b7 fccd 48b7
6.9719817e-06 -2.3646726e-06 -6.9269245e-06 -1.8545552e-06 1.0651387e-05 -6.637886e-06 -3.4135471e-06 1.8164117e-06
5.815082e-06 -6.1338715e-06 -5.8061914e-06 -5.51872e-06 -7.930084e-06 -7.2530383e-06 2.3332882e-06 -2.2885274e-06
2.525937e-07 7.318198e-08 3.3063807e-06 2.8962727e-06 -2.6714645e-06 -2.6919088e-07 -1.7517821e-06 -6.2569165e-06
3.1828588e-06 -2.0681573e-06 -1.2719775e-06 -1.429291e-06 2.2804372e-06 2.7955966e-06 5.166303e-07 -2.4675558e-06
2.8171357e-06 -7.389601e-07 -3.598108e-06 7.950522e-06 9.960718e-07 -2.139287e-06 -2.5310576e-06 9.861266e-07
2.4816504e-06 3.4575087e-06 6.90694e-06 1.1133965e-06 3.6721622e-07 4.705735e-06 -6.676357e-06 1.3908764e-05
7.5022064e-07 4.9878736e-07 3.9374322e-07 1.4431611e-05 2.3898488e-06 -5.6817303e-06 1.6244583e-06 -1.4330465e-06
8.193738e-07 -1.7650307e-06 -3.7427812e-06 7.1527143e-06 6.209234e-06 -7.436989e-06 3.0653066e-06 -1.6855191e-06
1.6812548e-06 -6.948944e-07 -4.9137548e-06 2.2863163e-07 -1.1888287e-06 -1.6363639e-06 3.704592e-06 -3.3897834e-07
3.0586139e-06 -1.4551802e-05 -7.255265e-07 2.4625524e-07 -2.7570368e-06 4.747435e-07 -1.4648595e-06 1.6993561e-06
-1.923337e-06 -8.3298784e-07 -6.5688835e-07 1.184967e-06 -9.295852e-06 2.2746685e-06 -6.0526645e-08 1.4099953e-08
1.0881218e-05 -2.4030442e-06 -5.763749e-06 4.1310227e-07 -9.525453e-06 -1.3570668e-06 3.1917227e-06 2.975379e-06
-1.1040956e-05 -1.3516544e-06 9.890891e-08 -2.3016164e-06 1.0800944e-06 -2.1829019e-06 4.0682708e-06 -3.9887846e-07
8.9734874e-07 -4.4435978e-07 3.0021656e-06 3.7478333e-07 5.224786e-06 2.4147033e-07 -5.745803e-07 2.2967106e-07
9.22817e-06 2.9987237e-07 -5.064525e-06 -1.4151341e-05 3.933879e-06 -1.9042411e-06 -6.5750132e-06 -6.7340457e-06
-2.7615106e-06 -1.0313044e-05 -7.62972e-06 -9.131518e-06 -2.7989522e-06 -2.9175271e-06 -9.103927e-06 -1.1968888e-05
